validate_service/model/model.onnx (onnx, 60819 bytes, 5 tensors)

input_bias f4 [64]
000000 aa 65 6b 3e 0d f1 84 3e 32 81 8d b5 51 5f 22 bf
       0.22988 0.25965157 -1.0542919e-06 -0.6342669
000010 18 57 8e b2 24 6e 25 3e 88 f3 e9 3e ad f4 e6 b4
       -1.6570581e-08 0.16155297 0.45693612 -4.3018863e-07
000020 1f 4d 9b 3e 54 51 06 b7 c1 1e ae 3e b3 ec 9b 3e
       0.30332276 -8.005958e-06 0.34007838 0.30454025
000030 3a ab 6e be fa a3 11 b8 fe 4c db 3d 43 63 5d 3e
       -0.23307505 -3.472341e-05 0.107080445 0.21619897
000040 b1 56 bd 3e 85 b8 0d bf c9 38 26 bf be 2e 15 3f
       0.36980203 -0.5535968 -0.649304 0.5827445
000050 1b 7b 9d 3e 68 c4 11 3f 9a 4b fc 3e 75 55 ab 3e
       0.30757985 0.5694032 0.4927643 0.33463636
000060 95 e3 48 3e 3a 12 42 3e 87 21 1d 3e 2a 84 b8 3d
       0.19618066 0.18952265 0.15344821 0.09009583
000070 e8 51 01 3f b5 cf f5 3c 40 d5 27 3e 83 0c a6 3e
       0.50515604 0.030006269 0.16389942 0.3243142
000080 d3 c4 80 3e f6 81 e0 3e 28 32 9c be e2 8a 1e bc
       0.25150165 0.43849152 -0.30507016 -0.009676667
000090 c1 91 83 b4 0a 5f a0 3e d6 1a 53 b3 b0 6a 70 3e
       -2.45067e-07 0.3132251 -4.9151673e-08 0.23478198
0000a0 f2 c3 6f 3e c1 a9 9e 3e 8e 27 df 3e ea 93 92 3e
       0.23414591 0.30988887 0.43584865 0.28628474
0000b0 a0 d4 82 3e 19 31 31 3f 74 e3 d5 3e e3 b0 ac 3e
       0.25552845 0.6921554 0.41775095 0.33728704
0000c0 db a2 ba b3 05 56 81 3e 62 ef 9b 3e cb ad 20 3f
       -8.690923e-08 0.2526094 0.30456072 0.6276519
0000d0 90 1a c9 3e 71 bb a6 3e a3 cb ca be 6a 23 c5 3e
       0.39278078 0.3256488 -0.39608487 0.3850358
0000e0 3f b4 3a 3e c4 09 80 3e 9a 54 d7 be b5 94 5a 3e
       0.18232821 0.2500745 -0.42056733 0.2134579
0000f0 2a 97 14 3f 8d fe 0e 3f 5f c3 c2 be 41 73 73 3e
       0.5804316 0.55857164 -0.3803968 0.23774435

max_pool2d_bias f4 [64]
000000 e4 c0 bc 3e f4 c3 a5 3e 07 0b 27 3e b4 4c b7 3e
       0.36865914 0.32376063 0.163128 0.35800707
000010 5e 8a 25 3f 59 02 e9 3e 73 93 af 3e 8e 0e 14 3e
       0.64664257 0.45509604 0.34292182 0.14458677
000020 c6 e8 0b 3f 2a d6 a1 3e 0f aa de 3d bf bf 51 3f
       0.5465206 0.31608707 0.1087228 0.81933206
000030 85 d5 33 3e dd 88 b6 3e 0b 25 b3 3e ee 76 be 3e
       0.1756192 0.35651293 0.349892 0.3720011
000040 d4 81 26 3f 80 c9 c4 3c af ca 51 3f 75 1b 9b 3e
       0.6504185 0.024021864 0.81949896 0.30294386
000050 67 bc f4 3e 20 96 2b 3f 02 cd 49 3f 6d 7c cc 3e
       0.4779999 0.6702595 0.7882844 0.3993868
000060 e8 b0 d5 3d 59 33 06 3e 16 db ca bd 00 c8 32 3f
       0.10434133 0.13105525 -0.099050686 0.69836426
000070 80 a1 9c ba 20 72 7a be b0 c5 86 bd f4 bb 60 3f
       -0.0011949986 -0.24457598 -0.06580675 0.87786794
000080 b8 b6 07 3f 28 a6 8a 3f 12 06 5f 3f 12 45 0c 3f
       0.5301318 1.0831957 0.8711864 0.5479289
000090 b8 57 fb 3e 1f fa fb 3d 0c 73 89 3f 16 9b 57 3f
       0.49090362 0.12303566 1.0738235 0.8422102
0000a0 70 6b 47 3e 41 f1 17 3f 53 bd 2f be 10 3a 10 bf
       0.19474578 0.593525 -0.17162065 -0.56338596
0000b0 c6 ed ad 3e 27 09 04 3f 2d ac 8b 3f 5d ea 5a 3f
       0.3397047 0.51576465 1.0911919 0.8551386
0000c0 d1 30 5b 3f 6b f2 7e 3f 8a 4d 2c 3f a6 5b 83 3f
       0.8562136 0.9958865 0.67305815 1.0262344
0000d0 4a 99 c2 3e 0e 1c 43 3f 9b 8a 7a 3f 54 54 22 bf
       0.38007575 0.76214683 0.97867745 -0.63409925
0000e0 21 76 1d 3f 7e 54 3a 3e 68 c6 0b 3f e8 86 c4 3d
       0.61508375 0.18196294 0.5459962 0.09596044
0000f0 a1 32 ba 3e 8a b3 3c 3f 46 80 50 bf 8f 4e 03 3f
       0.36366752 0.73711455 -0.8144573 0.51291746

relu_1_bias f4 [64]
000000 1a 6c d6 3d 70 5f b9 3a 96 78 9e bf 32 73 b6 be
       0.104698375 0.0014142822 -1.238055 -0.35634762
000010 b0 e2 aa 3d c6 eb 0c be 46 d8 da 3c c1 85 b1 3c
       0.083440185 -0.13761815 0.026714455 0.021670224
000020 4a f2 71 3f 52 09 83 bd f6 f9 90 3d 14 d5 f5 3e
       0.9451033 -0.06398262 0.07078926 0.48014128
000030 03 68 a3 3d 58 6d 25 be 80 31 4e 3b 99 af 10 3e
       0.07978823 -0.16154993 0.003146261 0.14129485
000040 b8 be 3a bd 46 21 37 be a5 2d 84 be ae 54 cb be
       -0.04559204 -0.17883787 -0.25816074 -0.39713043
000050 b0 aa 0c bf a5 e9 00 3e ba 77 a4 be 5f 89 08 3e
       -0.5494795 0.12589128 -0.32122594 0.13333653
000060 02 6b 1a bd de 6e 16 3f 46 f8 12 bd db c7 d5 bd
       -0.037699707 0.5876292 -0.035881303 -0.1043851
000070 ec 1b 8f 3e 77 6e 6d 3e 05 b1 f5 3e 16 1c 8b 3e
       0.2795099 0.2318667 0.47986618 0.27169865
000080 80 ad 89 bb 7c 0f ad 3e e0 f4 df 3d 88 6c 5a bd
       -0.004201591 0.33800876 0.10935378 -0.05332616
000090 76 2a 55 bf ee 9d 02 3f be 96 cb 3e eb 6e fa 3e
       -0.83267915 0.5102223 0.39763445 0.4891275
0000a0 c8 e7 c1 3e 44 9e 04 3e 28 f0 f7 3c de 57 bf 3d
       0.37872148 0.12950999 0.030265883 0.09342931
0000b0 a0 2e 46 be 28 48 15 bd 22 e1 e4 3f 10 ec 56 bd
       -0.19353724 -0.036445767 1.7881205 -0.05247122
0000c0 c7 45 19 3c 91 00 57 3e 76 d0 39 3f b6 08 fa bd
       0.009355015 0.2099631 0.7258371 -0.12208693
0000d0 d1 a0 91 3d 6a 60 69 3e 72 f8 cf be 98 e1 7b 3e
       0.071107514 0.22790685 -0.40619236 0.24597776
0000e0 79 f1 26 3e 28 98 e1 bd 91 c4 b7 3e d6 21 8e be
       0.16303052 -0.110153496 0.35892156 -0.2776019
0000f0 0b 4a 65 bd d2 ab 40 3e c6 11 89 be ac 73 8e 3e
       -0.055978816 0.18815544 -0.26771373 0.27822626

relu_2_bias f4 [64]
000000 2d 81 4c 3e 44 98 82 bf 96 53 18 3f 7c 02 10 3e
       0.19971152 -1.0202718 0.5950254 0.14063448
000010 27 9e 93 3e e8 ed 52 3f b5 c5 47 3e 2c 25 9c 3c
       0.28831598 0.82394266 0.19509013 0.019060694
000020 7c eb 79 3e 98 6d a9 3e 0a ae cb 3e e8 d5 65 3e
       0.24406236 0.33091426 0.3978122 0.2244488
000030 58 b0 52 3f da 5a a5 3e 2a 82 f7 bd bc 54 ee bd
       0.8230033 0.32295877 -0.12085374 -0.116372555
000040 74 be 6f 3e 16 0b 9b 3d 77 26 2f 3f 06 73 3b 3e
       0.23412496 0.07570474 0.6841807 0.18305597
000050 54 a7 75 be 33 11 49 3f e3 64 35 3f ba 51 40 bd
       -0.23989612 0.7854187 0.70857066 -0.04695294
000060 d4 64 51 be 02 f3 32 3f 58 4f 56 3f e7 12 e7 3e
       -0.20448619 0.6990205 0.8371482 0.4513161
000070 aa a9 e3 be f2 93 0f 3d 88 6b df be e2 f6 8a 3f
       -0.4446538 0.0350532 -0.43636727 1.0856593
000080 9e 43 e7 3e a0 e4 53 bc 18 ed 53 3f 13 b6 9a 3f
       0.45168775 -0.012932926 0.8278365 1.2086815
000090 14 39 aa bc ca 07 c9 bd 55 94 a5 3e 51 7d 26 3f
       -0.02077917 -0.09815939 0.3233973 0.6503497
0000a0 82 5a 4f bf df 87 fc 3d 28 f2 e2 be 13 a8 f6 3e
       -0.8099748 0.12330603 -0.44325376 0.48175105
0000b0 78 5a 12 3f c6 4d d5 3d 89 c6 0e be 2f dc df bd
       0.57169294 0.10415225 -0.13942923 -0.109306686
0000c0 ec bd 81 bf a0 06 ac 3e 01 42 0c bd a8 17 2d 3f
       -1.0136085 0.33598804 -0.034242634 0.6761422
0000d0 16 93 14 3e 04 5a b3 3e 04 11 4e 3f 43 6b 87 3d
       0.14509234 0.35029614 0.80494714 0.066122554
0000e0 12 8d d4 3e e0 80 b5 3e d6 02 33 3d 2b 8a 60 3f
       0.41513878 0.35449886 0.043703876 0.8771083
0000f0 40 1e 0e 3f 9f 27 0d bd 0a dd 3a bf 95 a4 0e 3f
       0.5551491 -0.034461614 -0.7299353 0.5571988

relu_3_bias f4 [64]
000000 2d 98 e5 bd 00 a7 73 3e da ac 91 bf 40 ba 81 3c
       -0.11210666 0.23794174 -1.1380875 0.015835881
000010 a0 5d f0 bd 74 ab 29 bd 8e 0f 9a be 14 f6 6e be
       -0.117366076 -0.041423276 -0.30089992 -0.23336059
000020 18 58 3b 3f 46 d6 c2 3e dd eb 7b be 16 0b 21 3c
       0.73181295 0.38054103 -0.24601693 0.009829303
000030 84 ce 05 be cc 83 8a 3f 3b de 81 be 6b 61 b9 3d
       -0.1306706 1.0821471 -0.2536486 0.09051784
000040 05 55 e3 3d 60 9e 7c 3e 04 6e 69 be ac 31 e0 bb
       0.111002006 0.2466979 -0.22795874 -0.006841859
000050 b8 ec 90 bc ed 3b 14 be 82 d0 5f bd 4e cd 6b bd
       -0.017691001 -0.14475985 -0.054642208 -0.05756884
000060 f1 50 6d be b4 5f e3 3d bf bc a9 3d cb d0 3e 3e
       -0.23175408 0.11102238 0.082879536 0.18634336
000070 8a bc 8b 3f e4 f7 54 3d 66 45 c8 3d b5 71 4e 3e
       1.0916913 0.05199422 0.09778862 0.20160563
000080 4a d7 58 3f 20 4e 1b bd 1e 5d 37 3f d8 fb 28 be
       0.84703505 -0.037916303 0.7162646 -0.16502321
000090 02 a5 7b 3f 22 e7 b9 3e 9c 33 21 3f bd ca 43 3e
       0.98298657 0.36309153 0.62969375 0.19120307
0000a0 30 41 cb bc b0 07 92 be ac de 24 be dc c1 d7 3e
       -0.024811357 -0.2852149 -0.16100568 0.4214009
0000b0 32 68 04 3f 5f b5 47 3e 03 fb 0a 3f 80 64 d0 bc
       0.5172149 0.19502781 0.54289263 -0.025438547
0000c0 07 be 94 3e 43 9f 03 3f 55 f6 d1 3d e2 bc 46 be
       0.2905123 0.5141489 0.10252062 -0.1940799
0000d0 12 1e 89 3e 27 a1 9a bd ff 13 28 3d 43 7d ea be
       0.26780754 -0.075502686 0.041034695 -0.45798692
0000e0 a0 27 8a be 50 6c 5e 3e 42 f7 00 3e 57 e6 98 be
       -0.26983356 0.21721005 0.12594321 -0.29863235
0000f0 8a e0 16 be 6a 0b 44 3d 66 4e 23 3d 9c 8d 93 be
       -0.14734092 0.047862448 0.03986969 -0.28818977
